…
[2026-03-12 15:53:17 vHeat4HSI_Indian_Pines] (main2.py 857): INFO {"cfg": "configs/vHeat4HSI/vheat4hsi_indian_pines.yaml", "opts": null, "batch_size": null, "data_path": null, "zip": false, "cache_mode": "part", "pretrained": null, "resume": null, "accumulation_steps": null, "use_checkpoint": false, "disable_amp": false, "amp_opt_level": null, "output": "output", "tag": null, "eval": false, "throughput": false, "local_rank": 0, "fused_layernorm": false, "optim": null, "model_ema": false, "model_ema_decay": 0.999, "model_ema_force_cpu": false, "use_distributed": false}
[2026-03-12 15:53:17 vHeat4HSI_Indian_Pines] (main2.py 196): INFO Creating model:vHeat4HSI/vHeat4HSI_Indian_Pines
[2026-03-12 15:53:17 vHeat4HSI_Indian_Pines] (main2.py 203): INFO vHeat4HSI(
  (patch_embed): HSI_DWS_Stem(
    (dw): Conv2d(200, 200, kernel_size=(3, 3), stride=(1, 1), padding=(1, 1), groups=200)
    (norm1): Sequential(
      (0): BatchNorm2d(200, eps=1e-05, momentum=0.1, affine=True, track_running_stats=True)
    )
    (act): GELU(approximate='none')
    (pw1): Conv2d(200, 100, kernel_size=(1, 1), stride=(1, 1))
    (norm2): Sequential(
      (0): BatchNorm2d(100, eps=1e-05, momentum=0.1, affine=True, track_running_stats=True)
    )
    (pw2): Conv2d(100, 200, kernel_size=(1, 1), stride=(1, 1))
  )
  (freq_embed): ParameterList(
      (0): Parameter containing: [torch.float32 of size 11x11x200]
      (1): Parameter containing: [torch.float32 of size 11x11x100]
      (2): Parameter containing: [torch.float32 of size 11x11x50]
      (3): Parameter containing: [torch.float32 of size 11x11x25]
  )
  (layers): ModuleList(
    (0): AdditionalInputSequential(
      (0): HeatBlock(
        (norm1): LayerNorm2d((200,), eps=1e-05, elementwise_affine=True)
        (op): Heat3D(
          (dwconv): Conv2d(200, 200, kernel_size=(3, 3), stride=(1, 1), padding=(1, 1), groups=200)
          (linear): Linear(in_features=200, out_features=400, bias=True)
          (spectral_diff): SpectralGraphDiffusion()
          (to_k): Sequential(
            (0): Linear(in_features=200, out_features=200, bias=True)
            (1): ReLU()
          )
          (out_norm): LayerNorm((200,), eps=1e-05, elementwise_affine=True)
          (out_linear): Linear(in_features=200, out_features=200, bias=True)
        )
        (drop_path): Identity()
        (norm2): LayerNorm2d((200,), eps=1e-05, elementwise_affine=True)
        (mlp): Mlp(
          (fc1): Conv2d(200, 400, kernel_size=(1, 1), stride=(1, 1))
          (act): GELU(approximate='none')
          (fc2): Conv2d(400, 200, kernel_size=(1, 1), stride=(1, 1))
          (drop): Dropout(p=0.0, inplace=False)
        )
      )
      (1): Sequential(
        (0): Conv2d(200, 100, kernel_size=(1, 1), stride=(1, 1))
        (1): LayerNorm2d((100,), eps=1e-05, elementwise_affine=True)
      )
    )
    (1): AdditionalInputSequential(
      (0): HeatBlock(
        (norm1): LayerNorm2d((100,), eps=1e-05, elementwise_affine=True)
        (op): Heat3D(
          (dwconv): Conv2d(100, 100, kernel_size=(3, 3), stride=(1, 1), padding=(1, 1), groups=100)
          (linear): Linear(in_features=100, out_features=200, bias=True)
          (spectral_diff): SpectralGraphDiffusion()
          (to_k): Sequential(
            (0): Linear(in_features=100, out_features=100, bias=True)
            (1): ReLU()
          )
          (out_norm): LayerNorm((100,), eps=1e-05, elementwise_affine=True)
          (out_linear): Linear(in_features=100, out_features=100, bias=True)
        )
        (drop_path): timm.DropPath(0.019999999552965164)
        (norm2): LayerNorm2d((100,), eps=1e-05, elementwise_affine=True)
        (mlp): Mlp(
          (fc1): Conv2d(100, 200, kernel_size=(1, 1), stride=(1, 1))
          (act): GELU(approximate='none')
          (fc2): Conv2d(200, 100, kernel_size=(1, 1), stride=(1, 1))
          (drop): Dropout(p=0.0, inplace=False)
        )
      )
      (1): HeatBlock(
        (norm1): LayerNorm2d((100,), eps=1e-05, elementwise_affine=True)
        (op): Heat3D(
          (dwconv): Conv2d(100, 100, kernel_size=(3, 3), stride=(1, 1), padding=(1, 1), groups=100)
          (linear): Linear(in_features=100, out_features=200, bias=True)
          (spectral_diff): SpectralGraphDiffusion()
          (to_k): Sequential(
            (0): Linear(in_features=100, out_features=100, bias=True)
            (1): ReLU()
          )
          (out_norm): LayerNorm((100,), eps=1e-05, elementwise_affine=True)
          (out_linear): Linear(in_features=100, out_features=100, bias=True)
        )
        (drop_path): timm.DropPath(0.03999999910593033)
        (norm2): LayerNorm2d((100,), eps=1e-05, elementwise_affine=True)
        (mlp): Mlp(
          (fc1): Conv2d(100, 200, kernel_size=(1, 1), stride=(1, 1))
          (act): GELU(approximate='none')
          (fc2): Conv2d(200, 100, kernel_size=(1, 1), stride=(1, 1))
          (drop): Dropout(p=0.0, inplace=False)
        )
      )
      (2): Sequential(
        (0): Conv2d(100, 50, kernel_size=(1, 1), stride=(1, 1))
        (1): LayerNorm2d((50,), eps=1e-05, elementwise_affine=True)
      )
    )
    (2): AdditionalInputSequential(
      (0): HeatBlock(
        (norm1): LayerNorm2d((50,), eps=1e-05, elementwise_affine=True)
        (op): Heat3D(
          (dwconv): Conv2d(50, 50, kernel_size=(3, 3), stride=(1, 1), padding=(1, 1), groups=50)
          (linear): Linear(in_features=50, out_features=100, bias=True)
          (spectral_diff): SpectralGraphDiffusion()
          (to_k): Sequential(
            (0): Linear(in_features=50, out_features=50, bias=True)
            (1): ReLU()
          )
          (out_norm): LayerNorm((50,), eps=1e-05, elementwise_affine=True)
          (out_linear): Linear(in_features=50, out_features=50, bias=True)
        )
        (drop_path): timm.DropPath(0.06000000238418579)
        (norm2): LayerNorm2d((50,), eps=1e-05, elementwise_affine=True)
        (mlp): Mlp(
          (fc1): Conv2d(50, 100, kernel_size=(1, 1), stride=(1, 1))
          (act): GELU(approximate='none')
          (fc2): Conv2d(100, 50, kernel_size=(1, 1), stride=(1, 1))
          (drop): Dropout(p=0.0, inplace=False)
        )
      )
      (1): HeatBlock(
        (norm1): LayerNorm2d((50,), eps=1e-05, elementwise_affine=True)
        (op): Heat3D(
          (dwconv): Conv2d(50, 50, kernel_size=(3, 3), stride=(1, 1), padding=(1, 1), groups=50)
          (linear): Linear(in_features=50, out_features=100, bias=True)
          (spectral_diff): SpectralGraphDiffusion()
          (to_k): Sequential(
            (0): Linear(in_features=50, out_features=50, bias=True)
            (1): ReLU()
          )
          (out_norm): LayerNorm((50,), eps=1e-05, elementwise_affine=True)
          (out_linear): Linear(in_features=50, out_features=50, bias=True)
        )
        (drop_path): timm.DropPath(0.07999999821186066)
        (norm2): LayerNorm2d((50,), eps=1e-05, elementwise_affine=True)
        (mlp): Mlp(
          (fc1): Conv2d(50, 100, kernel_size=(1, 1), stride=(1, 1))
          (act): GELU(approximate='none')
          (fc2): Conv2d(100, 50, kernel_size=(1, 1), stride=(1, 1))
          (drop): Dropout(p=0.0, inplace=False)
        )
      )
      (2): Sequential(
        (0): Conv2d(50, 25, kernel_size=(1, 1), stride=(1, 1))
        (1): LayerNorm2d((25,), eps=1e-05, elementwise_affine=True)
      )
    )
    (3): AdditionalInputSequential(
      (0): HeatBlock(
        (norm1): LayerNorm2d((25,), eps=1e-05, elementwise_affine=True)
        (op): Heat3D(
          (dwconv): Conv2d(25, 25, kernel_size=(3, 3), stride=(1, 1), padding=(1, 1), groups=25)
          (linear): Linear(in_features=25, out_features=50, bias=True)
          (spectral_diff): SpectralGraphDiffusion()
          (to_k): Sequential(
            (0): Linear(in_features=25, out_features=25, bias=True)
            (1): ReLU()
          )
          (out_norm): LayerNorm((25,), eps=1e-05, elementwise_affine=True)
          (out_linear): Linear(in_features=25, out_features=25, bias=True)
        )
        (drop_path): timm.DropPath(0.10000000149011612)
        (norm2): LayerNorm2d((25,), eps=1e-05, elementwise_affine=True)
        (mlp): Mlp(
          (fc1): Conv2d(25, 50, kernel_size=(1, 1), stride=(1, 1))
          (act): GELU(approximate='none')
          (fc2): Conv2d(50, 25, kernel_size=(1, 1), stride=(1, 1))
          (drop): Dropout(p=0.0, inplace=False)
        )
      )
      (1): Identity()
    )
  )
  (classifier): Sequential(
    (0): LayerNorm2d((25,), eps=1e-05, elementwise_affine=True)
    (1): AdaptiveAvgPool2d(output_size=1)
    (2): Flatten(start_dim=1, end_dim=-1)
    (3): Linear(in_features=25, out_features=16, bias=True)
  )
)
[2026-03-12 15:53:17 vHeat4HSI_Indian_Pines] (main2.py 205): INFO number of params: 656322
[2026-03-12 15:53:17 vHeat4HSI_Indian_Pines] (main2.py 334): INFO Start training
[2026-03-12 16:00:28 vHeat4HSI_Indian_Pines] (main2.py 853): INFO Full config saved to output/vHeat4HSI_Indian_Pines/default/config.json
[2026-03-12 16:00:28 vHeat4HSI_Indian_Pines] (main2.py 856): INFO AMP_ENABLE: true
…
t": false, "local_rank": 0, "fused_layernorm": false, "optim": null, "model_ema": false, "model_ema_decay": 0.999, "model_ema_force_cpu": false, "use_distributed": false}
[2026-03-12 16:00:28 vHeat4HSI_Indian_Pines] (main2.py 196): INFO Creating model:vHeat4HSI/vHeat4HSI_Indian_Pines
[2026-03-12 16:00:29 vHeat4HSI_Indian_Pines] (main2.py 201): INFO N/A indicates a possibly missing statistic due to how the module was called. Missing values are still included in the parent's total.
vHeat4HSI(
  #params: 0.66M, #flops: 0.11G
  (patch_embed): HSI_DWS_Stem(
    #params: 42.9K, #flops: 5.24M
    (dw): Conv2d(
      200, 200, kernel_size=(3, 3), stride=(1, 1), padding=(1, 1), groups=200
      #params: 2K, #flops: 0.22M
    )
    (norm1): Sequential(
      #params: 0.4K, #flops: 0.12M
      (0): BatchNorm2d(
        200, eps=1e-05, momentum=0.1, affine=True, track_running_stats=True
        #params: 0.4K, #flops: 0.12M
      )
    )
    (act): GELU(approximate='none')
    (pw1): Conv2d(
      200, 100, kernel_size=(1, 1), stride=(1, 1)
      #params: 20.1K, #flops: 2.42M
    )
    (norm2): Sequential(
      #params: 0.2K, #flops: 60.5K
      (0): BatchNorm2d(
        100, eps=1e-05, momentum=0.1, affine=True, track_running_stats=True
        #params: 0.2K, #flops: 60.5K
      )
    )
    (pw2): Conv2d(
      100, 200, kernel_size=(1, 1), stride=(1, 1)
      #params: 20.2K, #flops: 2.42M
    )
  )
  (freq_embed): ParameterList(
      (0): Parameter containing: [torch.float32 of size 11x11x200]
      (1): Parameter containing: [torch.float32 of size 11x11x100]
      (2): Parameter containing: [torch.float32 of size 11x11x50]
      (3): Parameter containing: [torch.float32 of size 11x11x25]
    #params: 45.38K, #flops: N/A
  )
  (layers): ModuleList(
    #params: 0.57M, #flops: 0.11G
    (0): AdditionalInputSequential(
      #params: 0.35M, #flops: 68.86M
      (0): HeatBlock(
        #params: 0.33M, #flops: 66.38M
        (norm1): LayerNorm2d(
          (200,), eps=1e-05, elementwise_affine=True
          #params: 0.4K, #flops: 0.12M
        )
        (op): Heat3D(
          #params: 0.16M, #flops: 46.78M
          (dwconv): Conv2d(
            200, 200, kernel_size=(3, 3), stride=(1, 1), padding=(1, 1), groups=200
            #params: 2K, #flops: 0.22M
          )
          (linear): Linear(
            in_features=200, out_features=400, bias=True
            #params: 80.4K, #flops: 9.68M
          )
          (spectral_diff): SpectralGraphDiffusion(#params: 1.6K, #flops: 26M)
          (to_k): Sequential(
            #params: 40.2K, #flops: 4.84M
            (0): Linear(
              in_features=200, out_features=200, bias=True
              #params: 40.2K, #flops: 4.84M
            )
            (1): ReLU()
          )
          (out_norm): LayerNorm(
            (200,), eps=1e-05, elementwise_affine=True
            #params: 0.4K, #flops: 0.12M
          )
          (out_linear): Linear(
            in_features=200, out_features=200, bias=True
            #params: 40.2K, #flops: 4.84M
          )
        )
        (drop_path): Identity(#params: 0, #flops: N/A)
        (norm2): LayerNorm2d(
          (200,), eps=1e-05, elementwise_affine=True
          #params: 0.4K, #flops: 0.12M
        )
        (mlp): Mlp(
          #params: 0.16M, #flops: 19.36M
          (fc1): Conv2d(
            200, 400, kernel_size=(1, 1), stride=(1, 1)
            #params: 80.4K, #flops: 9.68M
          )
          (act): GELU(approximate='none')
          (fc2): Conv2d(
            400, 200, kernel_size=(1, 1), stride=(1, 1)
            #params: 80.2K, #flops: 9.68M
          )
          (drop): Dropout(p=0.0, inplace=False)
        )
      )
      (1): Sequential(
        #params: 20.3K, #flops: 2.48M
        (0): Conv2d(
          200, 100, kernel_size=(1, 1), stride=(1, 1)
          #params: 20.1K, #flops: 2.42M
        )
        (1): LayerNorm2d(
          (100,), eps=1e-05, elementwise_affine=True
          #params: 0.2K, #flops: 60.5K
        )
      )
    )
    (1): AdditionalInputSequential(
      #params: 0.17M, #flops: 30.63M
      (0): HeatBlock(
        #params: 83K, #flops: 15M
        (norm1): LayerNorm2d(
          (100,), eps=1e-05, elementwise_affine=True
          #params: 0.2K, #flops: 60.5K
        )
        (op): Heat3D(
          #params: 42.3K, #flops: 10.04M
          (dwconv): Conv2d(
            100, 100, kernel_size=(3, 3), stride=(1, 1), padding=(1, 1), groups=100
            #params: 1K, #flops: 0.11M
          )
          (linear): Linear(
            in_features=100, out_features=200, bias=True
            #params: 20.2K, #flops: 2.42M
          )
          (spectral_diff): SpectralGraphDiffusion(#params: 0.7K, #flops: 4.49M)
          (to_k): Sequential(
            #params: 10.1K, #flops: 1.21M
            (0): Linear(
              in_features=100, out_features=100, bias=True
              #params: 10.1K, #flops: 1.21M
            )
            (1): ReLU()
          )
          (out_norm): LayerNorm(
            (100,), eps=1e-05, elementwise_affine=True
            #params: 0.2K, #flops: 60.5K
          )
          (out_linear): Linear(
            in_features=100, out_features=100, bias=True
            #params: 10.1K, #flops: 1.21M
          )
        )
        (drop_path): DropPath(drop_prob=0.020)
        (norm2): LayerNorm2d(
          (100,), eps=1e-05, elementwise_affine=True
          #params: 0.2K, #flops: 60.5K
        )
        (mlp): Mlp(
          #params: 40.3K, #flops: 4.84M
          (fc1): Conv2d(
            100, 200, kernel_size=(1, 1), stride=(1, 1)
            #params: 20.2K, #flops: 2.42M
          )
          (act): GELU(approximate='none')
          (fc2): Conv2d(
            200, 100, kernel_size=(1, 1), stride=(1, 1)
            #params: 20.1K, #flops: 2.42M
          )
          (drop): Dropout(p=0.0, inplace=False)
        )
      )
      (1): HeatBlock(
        #params: 83K, #flops: 15M
        (norm1): LayerNorm2d(
          (100,), eps=1e-05, elementwise_affine=True
          #params: 0.2K, #flops: 60.5K
        )
        (op): Heat3D(
          #params: 42.3K, #flops: 10.04M
          (dwconv): Conv2d(
            100, 100, kernel_size=(3, 3), stride=(1, 1), padding=(1, 1), groups=100
            #params: 1K, #flops: 0.11M
          )
          (linear): Linear(
            in_features=100, out_features=200, bias=True
            #params: 20.2K, #flops: 2.42M
          )
          (spectral_diff): SpectralGraphDiffusion(#params: 0.7K, #flops: 4.49M)
          (to_k): Sequential(
            #params: 10.1K, #flops: 1.21M
            (0): Linear(
              in_features=100, out_features=100, bias=True
              #params: 10.1K, #flops: 1.21M
            )
            (1): ReLU()
          )
          (out_norm): LayerNorm(
            (100,), eps=1e-05, elementwise_affine=True
            #params: 0.2K, #flops: 60.5K
          )
          (out_linear): Linear(
            in_features=100, out_features=100, bias=True
            #params: 10.1K, #flops: 1.21M
          )
        )
        (drop_path): DropPath(drop_prob=0.040)
        (norm2): LayerNorm2d(
          (100,), eps=1e-05, elementwise_affine=True
          #params: 0.2K, #flops: 60.5K
        )
        (mlp): Mlp(
          #params: 40.3K, #flops: 4.84M
          (fc1): Conv2d(
            100, 200, kernel_size=(1, 1), stride=(1, 1)
            #params: 20.2K, #flops: 2.42M
          )
          (act): GELU(approximate='none')
          (fc2): Conv2d(
            200, 100, kernel_size=(1, 1), stride=(1, 1)
            #params: 20.1K, #flops: 2.42M
          )
          (drop): Dropout(p=0.0, inplace=False)
        )
      )
      (2): Sequential(
        #params: 5.15K, #flops: 0.64M
        (0): Conv2d(
          100, 50, kernel_size=(1, 1), stride=(1, 1)
          #params: 5.05K, #flops: 0.6M
        )
        (1): LayerNorm2d(
          (50,), eps=1e-05, elementwise_affine=True
          #params: 100, #flops: 30.25K
        )
      )
    )
    (2): AdditionalInputSequential(
      #params: 44.23K, #flops: 7.58M
      (0): HeatBlock(
        #params: 21.45K, #flops: 3.7M
        (norm1): LayerNorm2d(
          (50,), eps=1e-05, elementwise_affine=True
          #params: 100, #flops: 30.25K
        )
        (op): Heat3D(
          #params: 11.1K, #flops: 2.43M
          (dwconv): Conv2d(
            50, 50, kernel_size=(3, 3), stride=(1, 1), padding=(1, 1), groups=50
            #params: 0.5K, #flops: 54.45K
          )
          (linear): Linear(
            in_features=50, out_features=100, bias=True
            #params: 5.1K, #flops: 0.6M
          )
          (spectral_diff): SpectralGraphDiffusion(#params: 0.3K, #flops: 0.87M)
          (to_k): Sequential(
            #params: 2.55K, #flops: 0.3M
            (0): Linear(
              in_features=50, out_features=50, bias=True
              #params: 2.55K, #flops: 0.3M
            )
            (1): ReLU()
          )
          (out_norm): LayerNorm(
            (50,), eps=1e-05, elementwise_affine=True
            #params: 100, #flops: 30.25K
          )
          (out_linear): Linear(
            in_features=50, out_features=50, bias=True
            #params: 2.55K, #flops: 0.3M
          )
        )
        (drop_path): DropPath(drop_prob=0.060)
        (norm2): LayerNorm2d(
          (50,), eps=1e-05, elementwise_affine=True
          #params: 100, #flops: 30.25K
        )
        (mlp): Mlp(
          #params: 10.15K, #flops: 1.21M
          (fc1): Conv2d(
            50, 100, kernel_size=(1, 1), stride=(1, 1)
            #params: 5.1K, #flops: 0.6M
          )
          (act): GELU(approximate='none')
          (fc2): Conv2d(
            100, 50, kernel_size=(1, 1), stride=(1, 1)
            #params: 5.05K, #flops: 0.6M
          )
          (drop): Dropout(p=0.0, inplace=False)
        )
      )
      (1): HeatBlock(
        #params: 21.45K, #flops: 3.7M
        (norm1): LayerNorm2d(
          (50,), eps=1e-05, elementwise_affine=True
          #params: 100, #flops: 30.25K
        )
        (op): Heat3D(
          #params: 11.1K, #flops: 2.43M
          (dwconv): Conv2d(
            50, 50, kernel_size=(3, 3), stride=(1, 1), padding=(1, 1), groups=50
            #params: 0.5K, #flops: 54.45K
          )
          (linear): Linear(
            in_features=50, out_features=100, bias=True
            #params: 5.1K, #flops: 0.6M
          )
          (spectral_diff): SpectralGraphDiffusion(#params: 0.3K, #flops: 0.87M)
          (to_k): Sequential(
            #params: 2.55K, #flops: 0.3M
            (0): Linear(
              in_features=50, out_features=50, bias=True
              #params: 2.55K, #flops: 0.3M
            )
            (1): ReLU()
          )
          (out_norm): LayerNorm(
            (50,), eps=1e-05, elementwise_affine=True
            #params: 100, #flops: 30.25K
          )
          (out_linear): Linear(
            in_features=50, out_features=50, bias=True
            #params: 2.55K, #flops: 0.3M
          )
        )
        (drop_path): DropPath(drop_prob=0.080)
        (norm2): LayerNorm2d(
          (50,), eps=1e-05, elementwise_affine=True
          #params: 100, #flops: 30.25K
        )
        (mlp): Mlp(
          #params: 10.15K, #flops: 1.21M
          (fc1): Conv2d(
            50, 100, kernel_size=(1, 1), stride=(1, 1)
            #params: 5.1K, #flops: 0.6M
          )
          (act): GELU(approximate='none')
          (fc2): Conv2d(
            100, 50, kernel_size=(1, 1), stride=(1, 1)
            #params: 5.05K, #flops: 0.6M
          )
          (drop): Dropout(p=0.0, inplace=False)
        )
      )
      (2): Sequential(
        #params: 1.32K, #flops: 0.17M
        (0): Conv2d(
          50, 25, kernel_size=(1, 1), stride=(1, 1)
          #params: 1.27K, #flops: 0.15M
        )
        (1): LayerNorm2d(
          (25,), eps=1e-05, elementwise_affine=True
          #params: 50, #flops: 15.12K
        )
      )
    )
    (3): AdditionalInputSequential(
      #params: 5.7K, #flops: 1M
      (0): HeatBlock(
        #params: 5.7K, #flops: 1M
        (norm1): LayerNorm2d(
          (25,), eps=1e-05, elementwise_affine=True
          #params: 50, #flops: 15.12K
        )
        (op): Heat3D(
          #params: 3.03K, #flops: 0.67M
          (dwconv): Conv2d(
            25, 25, kernel_size=(3, 3), stride=(1, 1), padding=(1, 1), groups=25
            #params: 0.25K, #flops: 27.23K
          )
          (linear): Linear(
            in_features=25, out_features=50, bias=True
            #params: 1.3K, #flops: 0.15M
          )
          (spectral_diff): SpectralGraphDiffusion(#params: 0.13K, #flops: 0.19M)
          (to_k): Sequential(
            #params: 0.65K, #flops: 75.62K
            (0): Linear(
              in_features=25, out_features=25, bias=True
              #params: 0.65K, #flops: 75.62K
            )
            (1): ReLU()
          )
          (out_norm): LayerNorm(
            (25,), eps=1e-05, elementwise_affine=True
            #params: 50, #flops: 15.12K
          )
          (out_linear): Linear(
            in_features=25, out_features=25, bias=True
            #params: 0.65K, #flops: 75.62K
          )
        )
        (drop_path): DropPath(drop_prob=0.100)
        (norm2): LayerNorm2d(
          (25,), eps=1e-05, elementwise_affine=True
          #params: 50, #flops: 15.12K
        )
        (mlp): Mlp(
          #params: 2.58K, #flops: 0.3M
          (fc1): Conv2d(
            25, 50, kernel_size=(1, 1), stride=(1, 1)
            #params: 1.3K, #flops: 0.15M
          )
          (act): GELU(approximate='none')
          (fc2): Conv2d(
            50, 25, kernel_size=(1, 1), stride=(1, 1)
            #params: 1.27K, #flops: 0.15M
          )
          (drop): Dropout(p=0.0, inplace=False)
        )
      )
      (1): Identity(#params: 0, #flops: N/A)
    )
  )
  (classifier): Sequential(
    #params: 0.47K, #flops: 18.55K
    (0): LayerNorm2d(
      (25,), eps=1e-05, elementwise_affine=True
      #params: 50, #flops: 15.12K
    )
    (1): AdaptiveAvgPool2d(
      output_size=1
      #params: 0, #flops: 3.02K
    )
    (2): Flatten(start_dim=1, end_dim=-1)
    (3): Linear(
      in_features=25, out_features=16, bias=True
      #params: 0.42K, #flops: 0.4K
    )
  )
)
[2026-03-12 16:00:29 vHeat4HSI_Indian_Pines] (main2.py 334): INFO Start training
[2026-03-12 16:00:32 vHeat4HSI_Indian_Pines] (main2.py 507): INFO Train: [0/600][0/6]	eta 0:00:14 lr 0.000000	 wd 0.0500	time 2.4856 (2.4856)	data time 0.4867 (0.4867)	loss 2.7759 (2.7759)	grad_norm 0.9322 (0.9322)	loss_scale 65536.0000 (65536.0000)	mem 1138MB
…
